…
need</p> <p>Question: - In training what is verifiable rewards ?</p>"},{"location":"moe/#qwen3moe-next","title":"Qwen3Moe-Next","text":"<p>qwen blog</p> <p>[!Note] Switch to seperate think/no_think models why? It's some kind of new trend hmm.</p> <p>Qwen3-Next innovations: - hybrid attention mechanism - highly sparse (MoE) - training-stability-friendly optimizations - multi-token prediction mechanism</p> <p>Model architecture:</p> <pre><code>amount of layers = 48 [ 32 -delta net, \n                        12 std attention]\n\nQwen3NextForCausalLM(\n  (model): Qwen3NextModel(\n    (embed_tokens): Embedding(151936, 2048)\n    (layers): ModuleList(\n      (0-2): 3 x Qwen3NextDecoderLayer(\n        (linear_attn): Qwen3NextGatedDeltaNet(\n          (act): SiLU()\n          (conv1d): Conv1d(8192, 8192, kernel_size=(4,), stride=(1,), padding=(3,), groups=8192, bias=False)\n          (in_proj_qkvz): Linear(in_features=2048, out_features=12288, bias=False)\n          (in_proj_ba): Linear(in_features=2048, out_features=64, bias=False)\n          (norm): Qwen3NextRMSNormGated()\n          (out_proj): Linear(in_features=4096, out_features=2048, bias=False)\n        )\n        (mlp): Qwen3NextSparseMoeBlock(\n          (gate): Linear(in_features=2048, out_features=512, bias=False)\n          (experts): ModuleList(\n            (0-511): 512 x Qwen3NextMLP(\n              (gate_proj): Linear(in_features=2048, out_features=512, bias=False)\n              (up_proj): Linear(in_features=2048, out_features=512, bias=False)\n              (down_proj): Linear(in_features=512, out_features=2048, bias=False)\n              (act_fn): SiLU()\n            )\n          )\n          (shared_expert): Qwen3NextMLP(\n            (gate_proj): Linear(in_features=2048, out_features=512, bias=False)\n            (up_proj): Linear(in_features=2048, out_features=512, bias=False)\n            (down_proj): Linear(in_features=512, out_features=2048, bias=False)\n            (act_fn): SiLU()\n          )\n          (shared_expert_gate): Linear(in_features=2048, out_features=1, bias=False)\n        )\n        (input_layernorm): Qwen3NextRMSNorm((2048,), eps=1e-06)\n        (post_attention_layernorm): Qwen3NextRMSNorm((2048,), eps=1e-06)\n      )\n      (3): Qwen3NextDecoderLayer(\n        (self_attn): Qwen3NextAttention(\n          (q_proj): Linear(in_features=2048, out_features=8192, bias=False)\n          (k_proj): Linear(in_features=2048, out_features=512, bias=False)\n          (v_proj): Linear(in_features=2048, out_features=512, bias=False)\n          (o_proj): Linear(in_features=4096, out_features=2048, bias=False)\n          (q_norm): Qwen3NextRMSNorm((256,), eps=1e-06)\n          (k_norm): Qwen3NextRMSNorm((256,), eps=1e-06)\n        )\n        (mlp): Qwen3NextSparseMoeBlock(\n          (gate): Linear(in_features=2048, out_features=512, bias=False)\n          (experts): ModuleList(\n            (0-511): 512 x Qwen3NextMLP(\n              (gate_proj): Linear(in_features=2048, out_features=512, bias=False)\n              (up_proj): Linear(in_features=2048, out_features=512, bias=False)\n              (down_proj): Linear(in_features=512, out_features=2048, bias=False)\n              (act_fn): SiLU()\n            )\n          )\n          (shared_expert): Qwen3NextMLP(\n            (gate_proj): Linear(in_features=2048, out_features=512, bias=False)\n            (up_proj): Linear(in_features=2048, out_features=512, bias=False)\n            (down_proj): Linear(in_features=512, out_features=2048, bias=False)\n            (act_fn): SiLU()\n          )\n          (shared_expert_gate): Linear(in_features=2048, out_features=1, bias=False)\n        )\n        (input_layernorm): Qwen3NextRMSNorm((2048,), eps=1e-06)\n        (post_attention_layernorm): Qwen3NextRMSNorm((2048,), eps=1e-06)\n      )\n    )\n    (norm): Qwen3NextRMSNorm((2048,), eps=1e-06)\n    (rotary_emb): Qwen3NextRotaryEmbedding()\n  )\n  (lm_head): Linear(in_features=2048, out_features=151936, bias=False)\n)\n</code></pre>"},{"location":"moe/#-80b-a3b","title":"- 80B-A3B","text":"<p>Comparison:</p> <ul> <li>performnace of Qwen3-32B model, using less than 10% of its training cost (GPU hours)</li> <li>In inference, especially with context lengths over 32K tokens, it delivers more than 10x higher throughput \u2014 achieving extreme efficiency in both 
…
